MachineLearningProject/MLModels/adult_income_model.tflite (tflite, 89112 bytes, 5 tensors)

arith.constant f4 [1, 64]
00000000: 8066 96be 6f1d bbbe bb8a b83e 5ae4 703f
00000010: ccd2 d13e 1df3 df3e a00e ae3e 7611 42be
00000020: 5aa1 33bf 6821 8e3e ab5c 20be eb87 9a3c
00000030: 3f55 dcbe 4dde 303f f522 55be 3f60 f1be
00000040: 121d a63e c386 f33e a364 84be c587 3ebf
00000050: 175b 043f 7861 c1be e977 933e b14e a2be
00000060: f03b 33bf 2219 cc3e b67e 0dbe c77b c73e
00000070: fa5b 67be 730f b33e 7d20 093f 6fd4 023f
00000080: ecd6 f7bd 0a52 5a3f 00b7 2e3e 2514 463f
00000090: cc0d bcbe 2f52 d1be 5712 053f 5cda 0a3f
000000a0: da97 5abe b3b1 dcbe ad19 153f df07 f0be
000000b0: cec3 b93e fcbf 80be 0e84 8dbe c777 453f
000000c0: e552 b93e 9afb 0bbf ccba d3be da06 1cbe
000000d0: 6609 e53e ab2b 963e 30d6 92be 8518 713e
000000e0: 5278 6f3f d160 ba3e c1db d4be 77af a1be
000000f0: dd72 af3e 69e1 e9be 0569 87be 9822 153e
-0.29375076 -0.36545894 0.36043343 0.94098437 0.40981138 0.43740168 0.33995533 -0.18951973
-0.7016808 0.27759862 -0.1566035 0.018863639 -0.43033788 0.69089204 -0.20814116 -0.47143742
0.32444054 0.47563753 -0.2585803 -0.7442592 0.5170149 -0.37769675 0.28802422 -0.31700662
-0.7001333 0.39862925 -0.13817868 0.38961622 -0.2259368 0.34972724 0.535652 0.511054
-0.1210154 0.8528143 0.17061996 0.7737449 -0.36729276 -0.40883014 0.5198111 0.5423944
-0.2134699 -0.43104324 0.58242303 -0.46881005 0.362822 -0.25146472 -0.27639812 0.7713589
0.36196056 -0.5468079 -0.41353452 -0.15236989 0.44733733 0.2933019 -0.28679037 0.2354451
0.9354297 0.3640199 -0.4157391 -0.31579182 0.3426732 -0.45679787 -0.2644731 0.14563978

arith.constant1 f4 [64, 128]
00000000: a038 54bc b447 12be d284 56bd 0c98 3fbe
00000010: 5aff 6a3d 89ae 5a3e 4bbb efbd 4c72 003d
00000020: bdb3 b23e e52b a73e e460 55be a30c 523e
00000030: 966d ecbe 6baa 29be ef9a 0dbe 8e8f 073e
00000040: c8e9 5dbc 7c4d e63d 26c5 983e f3d3 813e
00000050: 37ff e5bb 70b2 ff3d 218c 913e 62c6 31bd
00000060: b66b 18be 18e2 923d db1e 383e be16 f43c
00000070: 55cf aabe 00f9 1a3e c06a 99be f8fa bc3d
00000080: 3a9e 023e 9512 97bc 48f4 cdbc e4b3 643e
00000090: 6938 463e ca02 ea3e 643a 203d f50f adbe
000000a0: bc45 0dbe e192 bcbd e2f0 a6bc 04c8 5fbe
000000b0: ad4e 5ebe d6e5 b2bd 095d 2fbd a30c dabb
000000c0: 4b22 1abb 249f 803d 8107 f8bc 163d b7bc
000000d0: 1fca 0dbd 6b56 663d 451b d23e 1b1b 69bd
000000e0: 7ecd 14be 5123 f5be 634c 133e e53e 01be
000000f0: d168 60bd 5fe9 15bd 1127 f4bd 409f f3bd
00000100: adc4 84be c0dc 81be 8930 9ebe 02bc 3e3c
00000110: 55e4 8c3e df24 15bd 8309 0b3e 913f 4e3e
00000120: 7096 d53d f865 eb3d 3468 813e 865f 773e
00000130: 54c1 f33d b331 4b3e 3326 c4bd c514 793e
00000140: 77db 5cbe ef65 c3be 4fc1 f23c 45f7 6f3d
00000150: 86f9 193e 0367 28be ac26 12be 4b8d 213e
00000160: 9d82 fc3d eed0 14be b5ef 69be dec9 523e
00000170: cb7a 9dbe d75e 853c b953 a1bc 9bb7 e4bc
00000180: 0948 24be a9f8 8f3e 1f43 05be e20a 19be
00000190: 7f70 7b3d eeaf 6fbe b6eb 933d 0aa2 873d
000001a0: a1fc 2b3e 1fbc 05bc a9d3 36be 5f72 a0bd
000001b0: 1ddd de3e eb55 4a3e 065a 8b3e 2820 19bf
000001c0: 794f 543e d7f5 aabc f341 9ebd 2012 3c3c
000001d0: 0af0 d33d cdc3 843e 3fe5 0abe b3ab 12bf
000001e0: d1e2 173d 3f58 e4bd b8e6 963e c8bd 18be
000001f0: fdd7 4d3e a161 623c 165f 09bd f140 83bc
00000200: 3ded 5c3e 4bc5 d93d 98b8 debd 8880 d0be
00000210: eefc 083e 8de4 02bd db76 763c 599d 8d3e
00000220: 4c88 1f3e 9b27 1c3e 118e c9be f391 443e
00000230: 1b9d 52be 08ac 6dbd 2576 ae3d bfa2 a8be
00000240: 3872 3fbd c807 153e c197 843e 0066 813e
00000250: 0cb3 8abd f275 003b 5380 3ebd 6779 94be
00000260: dece 3abd cb46 d83c 53d8 ebbc 697f 26be
00000270: 0d7b 2ebe ac7b 503e 85f4 1cbd dfe2 8ebe
00000280: 47d0 953e 47aa 073e d5b4 1fbe 1b42 2e3e
00000290: 7bfa 0cbd 4394 f93e 0fe5 94be c681 04bf
000002a0: 04ba 943d cacf 983d 1cfe a73e 43a1 c3bd
000002b0: 1138 21bb 24b3 ba3c 65d2 50be bf44 863d
000002c0: 2cdd ec3d b3ec a0bd 6b59 6a3e 9ea3 2d3e
000002d0: e203 8cbd 0c9c 20bd f05e 9f3e 16c1 053e
000002e0: 80cd 23be 3160 91be dc6a a03d 8d94 14be
000002f0: 0183 cf3d df71 16bf 59fb 88be 1421 56be
00000300: b070 23bd ca3b 85be 3ed2 b2be b7a0 c13d
00000310: e507 d1bc 6a1c 90bc 6948 71bd 2f63 973e
00000320: c609 783e a848 863e b1b1 863e b431 003e
00000330: c774 2b3d 8c15 06be 155a a23d 1434 0d3e
00000340: 31f7 d33d 2178 3dbe 442e 1d3e 3815 0d3e
00000350: ff8c 2abd 1c9b 92be 3d03 41be 759a f63d
00000360: 60e4 bbbd 5c30 c93c ebdd f9be 9068 833c
00000370: 70f0 5cbe a8ba 503d 4f0b 3d3c 7ceb 3b3e
00000380: bacc 43bf 91c4 153f 570e a8bd 1670 b43c
00000390: 4943 363d 6384 a43c f8ad 82be 2c17 093e
000003a0: 595c ad3e 899c adbd 2446 753c 3bc9 72bc
000003b0: 5829 8b3e 18ae 023e 2d2e a53e 5615 09bf
000003c0: c355 6dbd 7a37 cd3c 00db 0abf a6c0 82bd
000003d0: f63a 013e 3cef 7f3b c874 f83d af98 ccbe
000003e0: 5a5d 50be 0c94 7fbe 9731 243e 340d 7ebd
000003f0: 3297 213c 31f6 3abe 79ad 1d3d eca6 c23b
-0.012952954 -0.14285165 -0.05237276 -0.18710345 0.05737243 0.21355642 -0.11705645 0.031359002
0.34902754 0.32650676 -0.20837742 0.20512633 -0.46177357 -0.16568916 -0.13828634 0.13238356
-0.013544507 0.11245248 0.29837912 0.25357017 -0.0070189494 0.12485206 0.28427222 -0.043402083
-0.14884838 0.0717203 0.1798052 0.029796 -0.33361307 0.15134048 -0.29964256 0.09227556
0.12755671 -0.018441478 -0.025140896 0.22334248 0.19357456 0.45705253 0.039118186 -0.33801237
-0.13796133 -0.092077024 -0.020378534 -0.21853644 -0.217097 -0.08735244 -0.042813335 -0.0066543384
-0.0023518975 0.06280354 -0.030277016 -0.022367995 -0.034616586 0.05623476 0.4103643 -0.056910615
-0.14531514 -0.47878507 0.14384608 -0.12621649 -0.05478746 -0.036599513 -0.11921514 -0.11895609
-0.25931302 -0.2536373 -0.30896404 0.011641504 0.27517954 -0.036412116 0.13577847 0.20141436
0.10429084 0.11494058 0.25274813 0.24157533 0.11902109 0.19843177 -0.095775984 0.24324329
-0.21568094 -0.38163707 0.029633192 0.058585424 0.15036592 -0.16445546 -0.14272565 0.15776555
0.123296 -0.14532825 -0.22845347 0.20584819 -0.30757746 0.016280575 -0.019693242 -0.027919581
-0.16043104 0.281194 -0.13013886 -0.14945558 0.06138658 -0.23406956 0.07222693 0.066227034
0.16795589 -0.008162527 -0.1785418 -0.078343146 0.4352807 0.19759338 0.2721712 -0.5981469
0.20733441 -0.020869179 -0.077274226 0.011478931 0.10348518 0.25930634 -0.13564013 -0.5729324
0.037081543 -0.11149644 0.294729 -0.14916146 0.20101924 0.013817222 -0.033537947 -0.016022177
0.21574874 0.10633334 -0.10875052 -0.40723062 0.13377735 -0.031956244 0.015042986 0.2765911
0.15579337 0.15249483 -0.393662 0.191963 -0.20567743 -0.05802539 0.08518628 -0.32936665
-0.046739787 0.1455375 0.2589703 0.25273132 -0.06772432 0.001960155 -0.0465091 -0.28998873
-0.04560744 0.026400944 -0.028789675 -0.1625954 -0.17039128 0.20359677 -0.03831913 -0.27907464
0.29260466 0.1324855 -0.15596326 0.17017405 -0.034418564 0.48745927 -0.29081008 -0.5176052
0.07262042 0.074615076 0.32811058 -0.095522426 -0.0024600069 0.022790499 -0.20392759 0.06556081
0.11565623 -0.07857647 0.22885673 0.16956946 -0.06836678 -0.039211318 0.3112712 0.13061938
-0.15996361 -0.283937 0.07832882 -0.14509793 0.10132409 -0.58767503 -0.26754263 -0.20911056
-0.03990239 -0.26022178 -0.34926027 0.09454482 -0.02551646 -0.017591674 -0.058906946 0.2956786
0.24222478 0.26227307 0.26307443 0.1251896 0.041859414 -0.13094157 0.07927338 0.13789397
0.103498824 -0.18502857 0.1534968 0.13777626 -0.04163837 -0.28633964 -0.18848892 0.12041179
-0.091744184 0.024559192 -0.48802122 0.01604107 -0.21576095 0.05095926 0.011538341 0.18351549
-0.7648426 0.5850306 -0.0820586 0.022026103 0.044497762 0.020082658 -0.25523353 0.13387746
0.33859518 -0.08477122 0.014970336 -0.014818485 0.2717998 0.12761724 0.32261792 -0.5354818
-0.057943117 0.025050867 -0.5424042 -0.06384401 0.12620148 0.0039052507 0.12131649 -0.39960238
-0.20348111 -0.24958819 0.16034542 -0.06202431 0.009862708 -0.18257977 0.038495515 0.005940309

sequential_1/dense_1_2/BiasAdd/ReadVariableOp f4 [64]
00000000: eb7c fb3c 6d92 913d 82b6 013e 5624 c5bc
00000010: eb21 763d 50f8 253c 1310 67bb 75cd 793d
00000020: de42 853c b80a 8d3d d5d9 a83d 6185 bdbd
00000030: 397f 963d 1b2d 68bc dfcb 6d3d 4ab0 8e3b
00000040: 8337 2c3d 75aa 13bd 7dd4 393d fd76 033d
00000050: 34d2 333d 6e92 0c3d 45c1 003e 046b 45bd
00000060: 4454 ec3a ef9b 32bc fe60 4f3c 7d30 a83d
00000070: 881e c03d 05bc e3bd 1b25 563d 8c8b 20bc
00000080: cf76 a53b f0d4 0bbd e6e4 20bc 76f1 a73c
00000090: 18df 8c3c fcda 90bc f653 73bd f5bb 683d
000000a0: 9a5b 083d 0b23 103d 0f1f 1c3e fcb1 8ebd
000000b0: 54a8 9a3d 89c4 fb3a ec6d 313c 62ad 87bb
000000c0: 385e 533d 0468 b7bc a494 113d 4e07 493d
000000d0: 6c6a 89bd fd7c bd3d 4cfb 003c cd64 143e
000000e0: 0bbe 61bd bcaf b7bd 6424 443d ed01 ea3d
000000f0: b8a2 6f3d 2a56 a13c 9842 42bd 33ee 8e3c
0.030699214 0.071080066 0.12667277 -0.024065178 0.06009094 0.010130003 -0.0035257384 0.060986955
0.016267236 0.0688681 0.08244673 -0.09253956 0.073484845 -0.01417091 0.058055755 0.0043545114
0.042045128 -0.036051232 0.04536866 0.032095898 0.043901637 0.034319334 0.12573726 -0.04819776
0.0018030484 -0.010901435 0.012657402 0.082123734 0.093808234 -0.11119846 0.05228148 -0.009798896
0.0050495635 -0.03413862 -0.009820199 0.02050088 0.017196223 -0.017682545 -0.059406243 0.056819875
0.033290483 0.03518967 0.15246223 -0.069675416 0.07551637 0.0019208352 0.01082943 -0.004140542
0.051603526 -0.022388466 0.035542145 0.049079232 -0.067097515 0.09252355 0.007872414 0.14491577
-0.05511288 -0.089690655 0.047886267 0.114261486 0.05850479 0.019694407 -0.04742679 0.017447567

sequential_1/dense_1/BiasAdd/ReadVariableOp f4 [128]
00000000: a38d 08be 8a97 08bd 88f0 4dbc d7a7 79bd
00000010: d891 b2bd 5aea 90bd 2044 4fbd b468 b8bd
00000020: 7701 8ebd 9fa7 56bd cedb 4dbd 24fb 12bc
00000030: 0e88 bbbd 5041 073d 244f cfbd 83fa c4bd
00000040: 4448 d23c 8954 74bd 7022 d5bc 43df 87bd
00000050: 25c4 57bc 9c7f 44bd e58a 463d ce32 a93c
00000060: d1d3 27bd d248 b4bd 3567 96bc ca48 b2bd
00000070: a6cf f33c c8e1 cabd c76e 8fbd 13ed 97bd
00000080: 0fb2 95bd ea2b d6bd 3b36 15be 8d25 28bd
00000090: 09fe a1bd 89e1 0bbe 5ebf c5bc 71a3 3ebc
000000a0: 2f42 d7bd 4f60 a3bd 7d4c c8bd a853 18bd
000000b0: 6b24 d3bd 877e fdbc 70a3 123c 2453 a4bc
000000c0: 199d 153c 5ec0 88bd 4491 9fbd 7ca2 46bd
000000d0: 7cf1 803d bc2f 67bd 7640 1bbe cd1f afbd
000000e0: 5468 7fbd a07a b8bd a64f 5abd 867f 8abd
000000f0: e485 28bd e862 ce3b a27c 84bc abb7 58bc
00000100: 6512 22bd 0fe4 9bbc 72ec f3bc 3276 d5bc
00000110: cc6f a2bd 4772 62bd 883b 0abd e260 f1bd
00000120: 6ec9 90bd 4153 32bd c875 48bd 0ed6 b9bd
00000130: 742d 07bd 36bd b5bd 263b ddbc bb47 e8bd
00000140: 7829 afbd 9c2f 16bd 2918 bebd 99a7 bdbc
00000150: 1b68 2ebd 07e9 36bd 59e3 d5bc 3a16 49bd
00000160: 017b 04bc 8428 44bd 97f0 45bd 18af 5cbd
00000170: 043a 1a3b 8f61 e7bc f48b 093c 856c cdbd
00000180: 8f0a 473d f7cc 92bd cb24 f2bd 4824 fdbc
00000190: d8e4 90bd f418 85bd f6f0 e3bc 9d0f ddbd
000001a0: 5882 9ebd b13e 33bd 4912 76bd 586d c1bb
000001b0: b7d6 11be 22dd eabc 5b88 39bd cbf5 41bc
000001c0: be2e c6bc ae7f 8fbc e1ce 6bbd 9c58 d83c
000001d0: 8e44 1abd 15da 01be ee73 cebd 2655 793c
000001e0: 254f 5fba c7c0 ba3c 00a6 f8bd b705 40bd
000001f0: 283e 443c 5022 cabd ce63 abbd 6329 88bc
-0.1333528 -0.033347644 -0.012569554 -0.06095108 -0.08719224 -0.07075949 -0.05060208 -0.090043455
-0.06933873 -0.05240595 -0.05025845 -0.008971009 -0.0915681 0.03302127 -0.10122517 -0.09618094
0.025669225 -0.05965093 -0.026017398 -0.06634381 -0.013169323 -0.04797326 0.048472304 0.020654108
-0.04097349 -0.08802952 -0.01835976 -0.0870529 0.0297621 -0.099063456 -0.07003551 -0.07418265
-0.073093526 -0.10457595 -0.14571469 -0.041051436 -0.079097815 -0.13660254 -0.024139103 -0.011635647
-0.105106704 -0.07977354 -0.09780214 -0.037189156 -0.103096806 -0.030944122 0.008950099 -0.020059176
0.009131693 -0.06677316 -0.07791379 -0.0484948 0.062960595 -0.056442007 -0.15161309 -0.085509874
-0.062355354 -0.09007764 -0.053298615 -0.067626044 -0.041143313 0.0062984116 -0.01617271 -0.013227384
-0.039568324 -0.019029645 -0.029775832 -0.026057336 -0.0793148 -0.055284765 -0.03374818 -0.11786057
-0.0706967 -0.04353643 -0.04894045 -0.09074031 -0.03300233 -0.0887398 -0.027005743 -0.113418065
-0.085528314 -0.036666498 -0.09281952 -0.023151206 -0.04257975 -0.044655826 -0.026109384 -0.049093463
-0.008085967 -0.0478902 -0.048325147 -0.05387792 0.0023533115 -0.028244762 0.008395184 -0.10030464
0.048594054 -0.07168 -0.11823424 -0.03090109 -0.070748985 -0.064989 -0.02782486 -0.107939936
-0.07739705 -0.04376096 -0.06007603 -0.0059029274 -0.14242063 -0.028669897 -0.045296054 -0.011838387
-0.02419221 -0.017516937 -0.057570342 0.02640944 -0.037663035 -0.12680848 -0.100807056 0.015218055
-0.00085185684 0.022797002 -0.12141037 -0.04688045 0.01197771 -0.09869826 -0.083686456 -0.016621297

sequential_1/dense_1/MatMul f4 [128, 104]
00000000: d827 913e 4afb 813c 6f83 bd3e 8da6 033e
00000010: 5e77 1cbe 2d05 8ebe 47ff fa3d 971f 08be
00000020: d9bb 9e3d 8619 4cbe aace c33d ff73 9abe
00000030: 74be 713e 3b05 79bd c99e 24bf ca4b 2b3e
00000040: b477 723e 8dfa 773e a7f2 633e 48f7 64be
00000050: a977 fbbe a16b 5abe 54f4 42bd ff72 20be
00000060: 0696 873e b3fb 4fbc a9d6 133e 53df d2bd
00000070: 0146 d8bd 6d81 77be f27a ea3d 029f 5b3c
00000080: 71eb 6c3e f0bc 0f3e bb4e 32be 9b50 e3be
00000090: 81f8 ddbe 9b56 033c 1d8a 8e3e dcdc c8be
000000a0: f0a7 963e 60a8 99be 7508 99be a76a 093e
000000b0: a871 b03e 2c60 42bc 5d9e 413e 0822 babe
000000c0: 0278 7bbe 078d 803d 7ab7 bdbd 0b64 63be
000000d0: 49eb f43e 0870 2b3e d579 6abe 022d 97be
000000e0: 3d3b 693d ed97 593e 0311 ab3d ff66 583e
000000f0: 62af 3dbe 193a 8bbd e9ad 68be 2fed f4be
00000100: 07c2 18be 4daa e9bd 6df0 763f 0afe 973e
00000110: 07c3 993e 5887 29be 7044 c8be 08eb afbd
00000120: e273 673e 5c2f 733e b0d2 76bd 41a5 dc3e
00000130: 8dff 8ebe e855 153e ba26 883d 3937 d43e
00000140: 147d 12be 183c f73e 0d55 1abe f9cd fc3d
00000150: 94a3 45be 986b bf3d 5f3b aebe 8078 973e
00000160: 90ef 1dbb 35ca 3b3f 901e 8b3e 1f13 163e
00000170: b2a9 8b3d c747 9c3e 48db 9c3e ea7b e4bc
00000180: 4df3 ef3e 6be9 a23e ea59 a83d 2aac 37be
00000190: e651 e4be 70f1 2fbe 8417 153e 26a2 ebbd
000001a0: 0fbf ddbe 52dd fe3d 8dcb 8bbd 5e47 13be
000001b0: b264 13be ebb8 413d be73 7b3d 66d5 623e
000001c0: 7e8f ddbc 0466 40be 71dc 383e 3e07 20bd
000001d0: c72b 283f 14ed 143f 4bf0 99be 47b3 9abd
000001e0: d600 253e dcf6 073e 8dac 46be c469 b33e
000001f0: e3be 73be e64d 77bd af0f 193d e2b4 b53e
00000200: 0b52 493d 2a0b f0bd adaf de3e 72a1 7f3e
00000210: 2a24 babd 6d82 55be f5cd e6be 6ce0 32be
00000220: 7941 ba3e 7dbb 073d b9bf a5be 9d74 a83e
00000230: 7635 96be 26a5 48be 7236 3ebe 3427 303c
00000240: a771 f03e 19a0 cbbd b939 143e 6815 2e3e
00000250: 293a 95bd ff09 c63c 18a2 093e ef5b 103e
00000260: 0153 533e 5d27 b0be 355b 093e fe0e 6fba
00000270: 2048 563d 52bd c23e 1979 3cbe 7449 db3c
00000280: 3a01 173e 2ba5 8fbe 9d09 8dbb 197c 6bbd
00000290: fdd6 efbd 8cf4 90bc 64e7 f63d 9ceb 8cbe
000002a0: ce85 533e 6e2d 91bd b9f3 a63e 9249 12be
000002b0: f7dd 1ebe a32b af3b 33e9 c7bd 50d8 29be
000002c0: fcd1 9e3e 73c4 2b3e da62 24be f39e f73b
000002d0: a719 523e b6c3 edbc ae7f c3bd 7278 89be
000002e0: effa 913e aef1 78be 719b c3be 7154 053e
000002f0: 71f3 e03d b57a a0bd db61 d83d 864c b03e
00000300: 46b3 3d3e b8b2 7bbe a869 863e 300f 783d
00000310: 78dd 323e c1fe d33e 622f 03be 472b cf3e
00000320: 919f 9c3e 23ad 0a3e 7932 1dbe 991b 6bbe
00000330: e0cb ddbd 2fcf 27be d430 aabe 825e c6be
00000340: 93d4 14be fe9e 8ebd 7a7d ddbd a2cb a0bd
00000350: 9eda 4bbe b455 4e3e 76a4 d93d 0663 533e
00000360: 59c0 343e 2f19 9dbe 59f0 86be 06fd 12bd
00000370: a46e 033f d103 823e 8c29 293d fec5 c8be
00000380: e766 5a3d f805 413e 5b78 023e 7bcc d8bd
00000390: ba63 ef3c 73b0 f4bd 86f7 22be 0ff8 323e
000003a0: 6974 803e f678 b43d 8259 393e 6fdc 42be
000003b0: e020 eabc 3ae0 1cbe 7a8d 6bbd c939 75be
000003c0: 16bd 803e 0eea bd3e 9855 a8bd 14c1 65be
000003d0: 5e34 59bd 4b63 f2bd 407b 7fbd 2a43 83bd
000003e0: 8cae 98bd 9770 ecbd c018 f1bd 8825 d4be
000003f0: 7045 43be 9ea3 cfbc f8f6 83bc d6d1 e93c
0.2835071 0.015866894 0.37014338 0.12856503 -0.1527991 -0.27738324 0.122557215 -0.132933
0.07750673 -0.19931611 0.095609024 -0.30166623 0.23607808 -0.060796004 -0.64304787 0.1672813
0.23678476 0.24216671 0.22260533 -0.22359955 -0.4911473 -0.2133012 -0.04759629 -0.15668868
0.26481646 -0.012694287 0.14437355 -0.10296502 -0.10560227 -0.24170466 0.11449231 0.01340461
0.23136689 0.14036918 -0.17412846 -0.44397435 -0.43353656 0.008016254 0.27839747 -0.39231002
0.29425 -0.30011272 -0.29889265 0.13419591 0.34461713 -0.0118637495 0.18908067 -0.3635409
-0.24557498 0.06276899 -0.09263511 -0.22206132 0.47835758 0.16741955 -0.22898038 -0.29526526
0.05694126 0.21249361 0.08352854 0.2113304 -0.18523934 -0.067981906 -0.22722591 -0.47837207
-0.14917766 -0.114094354 0.9646061 0.29686004 0.30031607 -0.16555536 -0.39114714 -0.085897505
0.226028 0.23748535 -0.06025952 0.4309483 -0.27929345 0.14583552 0.066480115 0.41448382
-0.14305526 0.48288035 -0.15071507 0.12343974 -0.19300681 0.09346694 -0.34029672 0.29584122
-0.002409909 0.7335542 0.27171755 0.14655732 0.06819476 0.30523512 0.30636048 -0.027891118
0.4686531 0.3181871 0.08220275 -0.17936769 -0.44593734 -0.17181945 0.14559752 -0.11505537
-0.4330983 0.12444557 -0.068259336 -0.14382693 -0.14393881 0.047295492 0.061389677 0.22151718
-0.027045961 -0.18788916 0.18052842 -0.039069407 0.656918 0.5817425 -0.3006614 -0.07553726
0.161136 0.13277763 -0.1940176 0.3504163 -0.23803286 -0.060377024 0.037368473 0.35489565
0.049150508 -0.117208794 0.43493405 0.2496393 -0.09088929 -0.20850535 -0.45079008 -0.17468423
0.36378077 0.033137787 -0.32372835 0.3290147 -0.29337662 -0.19594249 -0.18575457 0.010751534
0.4696171 -0.099426456 0.14475144 0.17000353 -0.07286484 0.024174688 0.1344074 0.1409757
0.20637132 -0.34405032 0.13413699 -0.00091193605 0.052314878 0.38035065 -0.1840557 0.026768424
0.14746562 -0.280557 -0.0043041245 -0.057491396 -0.11710928 -0.017694734 0.12055853 -0.27523506
0.20656511 -0.07088743 0.3260782 -0.14285877 -0.1551436 0.005345778 -0.09761276 -0.16586423
0.3101958 0.16774158 -0.16053334 0.00755679 0.20517598 -0.029023986 -0.09545837 -0.26849705
0.2851176 -0.24310943 -0.3820453 0.13020493 0.10983933 -0.078359045 0.105655394 0.34433383
0.18525419 -0.24579895 0.26252484 0.06056136 0.17467296 0.414053 -0.12811044 0.40462705
0.3059049 0.13542609 -0.15351285 -0.22959746 -0.10829902 -0.16387628 -0.33240378 -0.3874398
-0.14534216 -0.06963919 -0.108149484 -0.0785134 -0.19907615 0.2014988 0.106270716 0.20643243
0.176515 -0.30683276 -0.26355246 -0.035885833 0.513407 0.25393537 0.041299388 -0.39213556
0.05332079 0.18849933 0.12741224 -0.105858766 0.029222358 -0.119477175 -0.15914735 0.1747744
0.25088814 0.08812134 0.18100551 -0.19029401 -0.02858013 -0.1531991 -0.05750797 -0.23947825
0.2514426 0.37092632 -0.08219451 -0.22436935 -0.053028457 -0.11835345 -0.0623734 -0.06409295
-0.07455167 -0.11544912 -0.11772299 -0.41434884 -0.19069457 -0.025346573 -0.016108975 0.02854244
