MachineLearningProject/MLModels/irisClassifierTFLite.tflite (tflite, 2876 bytes, 6 tensors)

arith.constant f4 [3, 10]
000000 db 3e 15 bf 79 c4 01 bf 89 26 d7 be 89 13 d6 be
       -0.58299035 -0.5069042 -0.42021587 -0.4181178
000010 32 b0 1d bf ab eb 88 be c6 2b e5 3a 46 ce 92 bd
       -0.6159698 -0.267423 0.0017484359 -0.0716825
000020 a7 ed 91 be 5e 93 00 3f d3 a9 c1 bc fa 1f ac 3e
       -0.28501627 0.50224864 -0.023640549 0.33618146
000030 c0 b5 f9 be ca 42 f1 3c 7b 3e 9a be ca 30 0e 3f
       -0.48771477 0.029450793 -0.30125794 0.55543196
000040 2a a8 28 3f 8e 86 17 3f 04 cd 32 bf 48 39 a7 be
       0.658816 0.5918969 -0.6984408 -0.3266089
000050 ef e7 51 3d 4e fc 1b bc c0 fd 14 3f fb 62 fb 3e
       0.05124658 -0.009520603 0.5819969 0.49098954
000060 d2 35 2e bd 0c a1 0f 3e ed 8e 2d 3e 9e b9 b3 3e
       -0.042531796 0.14026278 0.16949053 0.35102552
000070 e4 91 e0 3e 52 16 23 bf
       0.43861306 -0.63705933

arith.constant1 f4 [10, 10]
000000 70 93 dd 3e 6c 1a ad 3b f3 e7 53 3f 46 7f fe be
       0.43276548 0.0052826907 0.827758 -0.49706477
000010 48 bf ab 3e 7e 1b df 3e 19 e6 b2 3e 9c 66 58 bd
       0.33544374 0.43575662 0.34941176 -0.05283223
000020 62 ff 83 3e d7 4c de 3e 70 97 75 3d dc 10 4a 3e
       0.2578078 0.43418 0.059958875 0.19732994
000030 58 4e b8 be 58 fb 44 3e fc c9 fd 3e 60 f5 3b be
       -0.35997272 0.19236505 0.49568164 -0.18355322
000040 74 4e 81 bd 4f d5 7b 3c 00 da 2f bd 20 7c 7b bc
       -0.06313792 0.015370681 -0.04293251 -0.015349418
000050 08 11 08 3e 10 bd c8 be 4c 9e 02 3e 7c 37 08 bf
       0.13287747 -0.39206743 0.12755698 -0.5320966
000060 a4 ab b3 3e 28 59 e5 be 38 f1 75 3e df 5c a6 be
       0.3509189 -0.44794583 0.24017799 -0.3249273
000070 9c 80 b5 bd 5f 6b ac be 7c 8d 24 3e a2 74 05 3f
       -0.08862421 -0.33675668 0.16069597 0.5213109
000080 68 69 0e 3e 34 ac fa be a8 96 8a 3d e2 39 f8 be
       0.13907397 -0.48959506 0.06767017 -0.4848166
000090 c8 23 02 bf 5f 0a 01 3d ad 13 02 bf 22 9b 2c 3e
       -0.5083585 0.03150403 -0.5081127 0.16856053
0000a0 0e 47 6c be 84 88 73 3e 0e c3 ad be f0 88 af 3e
       -0.2307398 0.23782545 -0.33937877 0.34284163
0000b0 58 41 e6 3d ec 1a 09 3f e8 ab ff 3e 1f f1 3f be
       0.11242932 0.53556705 0.49935842 -0.18744324
0000c0 ec dc 04 3e ac 7e 58 3e f4 70 e8 3e 4a 6e 05 bf
       0.129749 0.21142071 0.45398676 -0.5212141
0000d0 2b e4 ea be 80 88 8b be 20 02 52 bd e2 12 a9 3e
       -0.45877203 -0.2725258 -0.051271558 0.3302222
0000e0 34 ea 7e be 20 db ef be f4 6d 29 3e 58 f7 c6 be
       -0.24894029 -0.46846867 0.1654585 -0.38860583
0000f0 9e c7 ad 3e 65 80 12 3d f6 54 03 be 21 11 0a bf
       0.33941358 0.035766978 -0.12825379 -0.53932387
000100 2b 23 f0 be 8b 1b cf be 3d 82 9a 3e d2 58 b6 3d
       -0.4690183 -0.404507 0.3017749 0.0890366
000110 60 a5 a3 3d 9d 26 e7 3e 94 12 4b be 97 96 9e 3d
       0.07990527 0.45146647 -0.19831306 0.077435665
000120 c1 df db be c2 4f f4 be 60 ce 04 3e 4e 17 78 be
       -0.42944148 -0.477171 0.12969351 -0.2422764
000130 5e 08 62 3e 0c 08 b8 bd 34 15 cc bd 6b 09 e0 be
       0.22073504 -0.0898591 -0.09964982 -0.43757185
000140 f8 04 45 3e bc 56 7d be 44 08 13 3f 5c f1 19 3e
       0.19240177 -0.24740118 0.5743449 0.15033478
000150 3c 59 d9 be 7e ea 01 bf 24 8c 89 3e c2 09 2a be
       -0.42450893 -0.5074843 0.2686473 -0.16605285
000160 a8 84 a3 be a0 35 c0 3e 24 4a 0a 3f f2 e0 55 be
       -0.31937146 0.37540913 0.5401938 -0.20886591
000170 27 67 91 be 70 57 50 bd 68 c4 00 be 37 e8 3a bf
       -0.28399011 -0.050864637 -0.12574923 -0.7301058
000180 61 37 72 be 81 24 27 3f a4 e6 b5 3e 92 5d d8 3e
       -0.23653938 0.65290076 0.35527527 0.42258888

arith.constant2 f4 [3]
000000 1c 18 0f 3e db ce 63 bb be fb 07 be
       0.13974041 -0.0034760747 -0.13279626

sequential_1/dense_1_2/BiasAdd/ReadVariableOp f4 [10]
000000 0b 66 16 be 89 5b 3b bd 00 00 00 00 4d ec 58 bd
       -0.14687364 -0.04574159 0.0 -0.05295973
000010 c9 9c 81 bd 00 00 00 00 a0 2e 8e bd f3 b7 5a bc
       -0.063287325 0.0 -0.06942487 -0.013349521
000020 e0 01 81 bd f3 d5 2d 3e
       -0.06299186 0.16976146

sequential_1/dense_1/BiasAdd/ReadVariableOp f4 [10]
000000 00 00 00 00 d0 dd 12 3d 17 e6 d9 bb 00 00 00 00
       0.0 0.035856068 -0.0066497433 0.0
000010 00 00 00 00 66 19 87 3c 88 38 00 be 3c a2 33 3e
       0.0 0.016491603 -0.12521565 0.17542356
000020 00 00 00 00 d7 07 eb bc
       0.0 -0.028690262

sequential_1/dense_1/MatMul f4 [10, 4]
000000 82 eb f1 be f0 ed d8 bd d4 26 1c be ee 4e ac 3e
       -0.4724999 -0.10592258 -0.15249187 0.3365397
000010 fd e2 77 3e 90 f5 f2 be dd 91 b3 3e b4 8a 22 bf
       0.24207683 -0.47452974 0.35072222 -0.63492894
000020 51 b8 c9 bd 51 fd 8f be 11 da f8 3e 3e 55 30 3d
       -0.09849609 -0.28122953 0.4860387 0.043050043
000030 ec 8b b6 be 50 a8 7a bd 04 59 bc 3e 7d 49 81 be
       -0.35653627 -0.06119567 0.36786664 -0.2525138
000040 24 8b f4 be 60 62 6f be a2 7e 1d 3f 60 ce 84 bd
       -0.47762406 -0.23377371 0.6152135 -0.064846754
000050 5e aa f7 3c bd cc b1 be ce d8 08 3f a6 19 ff 3e
       0.030232605 -0.34726515 0.5345582 0.49824256
000060 74 9e 29 3e 58 8f a3 be 71 7e 1d 3f e3 a6 d6 3e
       0.16564351 -0.319453 0.6152106 0.419242
000070 5f c4 85 3e 2e c5 53 3f fd 6a 07 be cb 68 ee 3e
       0.26126382 0.8272275 -0.13224407 0.46564326
000080 8c 79 27 bf 50 a5 17 bd 08 4b b2 3e 30 c7 2c bd
       -0.6541984 -0.03702289 0.3482287 -0.042182148
000090 3a 45 c0 bd 74 46 58 3d 1f 72 24 3f 65 ae 2b bd
       -0.09388204 0.052801564 0.64236635 -0.041914362
